Pytorch/Chapter02/cifar_model.pth (torch, 251696 bytes, 10 tensors)

cn1.weight f4 [6, 3, 5, 5]
00000000: c2be a9bd a0f5 0cbc aa3b cc3d efb7 b13d
00000010: f419 c7bd b8ff d0bd e1bc 04be 3714 563e
00000020: 1a46 0b3e 269f d4bd f6da dabd 8589 a63e
00000030: 6b3e 0abf a75d 113f e773 79be 7623 87be
00000040: 6f09 493f b25a 85bf 504b 013f a5c9 a0bd
00000050: 3f69 c5bd ace7 0c3f 9f1e 27bf 849f b63e
00000060: ea96 8abd 4b76 1d3e 9e44 e83c c2ea cbbd
00000070: 4bd3 c9bd 58ce 2d3e ead0 4b3e 70f3 04be
00000080: 5539 79be 87d3 f23c 1beb d53d 44ad 133e
00000090: 7038 e73e 91de 7bbf ed26 673e 0894 553e
000000a0: cd54 5fbd 0653 7e3f 7de9 afbf e27d bc3e
000000b0: e96c a03e c7f8 0ebc 954c d93e c445 5abf
000000c0: afa0 303e 49fa eaba 56f4 1ebd 0cec 8f3c
000000d0: 6434 5f3d 88d7 fbbd 38e0 f6bc dc39 47bc
000000e0: e220 8c3d 4a61 1b3c e326 5b3d 8be7 d5bd
000000f0: c57b 483c 37bf d53e a112 1bbf 2dc8 8e3e
00000100: 3040 efbd 42d7 8bbe 419f 803f 7f62 7fbf
00000110: 21f5 873e 54aa 903d 39ce 3cbe 1bdc 2c3f
00000120: cacd 0fbf 0e71 583e 1023 5a3c 35f4 b93d
00000130: ef09 4abc 61a7 e73e 2ebb 173e 0e4f a73e
00000140: 17eb 473c dc33 dd3e 805a 9b3e 2494 c7be
00000150: 0f81 a33d 779e c43e 71b9 7f3e 606b 22bf
00000160: a89b dfbe 958e 3a3e e421 1a3e e8e1 94be
00000170: 9ab2 bbbe 8d38 4e3e 023e c43d 3665 67be
00000180: 57fb 61be 8357 5abd ad88 943d f195 69be
00000190: 6245 83bd 22af ffbd 8c20 19be 8232 54be
000001a0: d9b2 99be c175 6abd 5502 b63e 1332 3dbb
000001b0: 1f00 ecbe 032e 14be 093a 113e 627a 833d
000001c0: 2f93 2fbf 8cf5 e5be 3880 8c3e cb00 b13d
000001d0: 48df e4be 88c6 03bf 7eb4 963e 745f c93e
000001e0: d3e5 89bd 6790 74be 4069 0c3e b12f a33e
000001f0: 0d01 273c d5a2 60be d85d e8bd a56f df3d
00000200: 4af7 57bd e236 9fbd bcde f9bc 2734 833e
00000210: ba3b 543e 73d0 14be 993e 623d 4ec3 c33d
00000220: 55b0 163e 8477 d8be cc41 87be aea1 1a3e
00000230: 5b13 58bd 8f7f a8be 8ea4 a0be c658 c73e
00000240: c77b 223e 3c87 703d 784b 0c3e a645 8c3e
00000250: f25c a73e 03b2 763d dd7d 7b3b 719c 083d
00000260: e5b5 973e a852 193d 12e6 f63b 0566 95bd
00000270: 730a cbbe 4199 8abd c7a1 e03e 92af 063c
00000280: fbf3 723e 2ba2 05be 7ee7 5fbf e897 5ebe
00000290: f40b e43e bd75 9b3d 3af7 073f f802 cfbb
000002a0: e44b 53bf 76d6 4abd bd39 d6bc 4956 943a
000002b0: fdab 083f 0044 463e 44d0 a63d 54bb abbb
000002c0: 12db abbd cea0 523e b37e 823d 2691 663e
000002d0: a587 4ebe eca5 85be d8a3 f0bd c22a 003f
000002e0: a7ee e63d 9db4 793e c1cd 31be 43f2 3bbf
000002f0: cc4c b8be b7fc 0d3f 7c5d 9a3b e1f4 fe3e
00000300: 1409 f2ba 7085 4abf 5df8 40be 7659 4ebe
00000310: c0f9 63be 7fef c73e 5085 363d ff95 a5be
00000320: b62d 7cbd b058 3abd b5e8 e63c 31bd 5dbd
00000330: 7d97 b2be 381e 233d 7d38 30bd ce24 03bd
00000340: aaf7 043f bb6c 1dbe 331b 253e 252a 54be
00000350: e93d 19bf decc 463b 94da 093f 5be0 ae3d
00000360: 9670 bf3e 3bb4 fc3d 49af 18bf 840a cebd
00000370: e390 163e 145f ca3d 03c6 b53e b7cf 103e
00000380: cab3 17bd 6e7c 75bd e6d1 7b3d 167e 863e
00000390: b63a ebbd 74a4 1bbe 984b a3bd 95c1 76be
000003a0: 2f63 f8be e889 9abf 6f0d 84be b29d b13e
000003b0: 78ee a93d a893 8d3e b020 9a3e 8862 333f
000003c0: 6825 d5bd 797e 073e 406e 263f abba 633e
000003d0: 817c 913d 6dc6 0abe 94b7 a03d 319a c6bd
000003e0: 0d17 a8be b158 3dbd fc61 2fbd 565a edbe
000003f0: a537 ee3e 7907 bf3d a6ac c6bd 78d2 8f3e
-0.08288337 -0.008603483 0.099723175 0.08677661 -0.09721747 -0.102050245 -0.12962677 0.20906149
0.1360096 -0.10381918 -0.10686295 0.32526794 -0.5400149 0.5678353 -0.2436062 -0.26394242
0.7853002 -1.0418303 0.5050554 -0.07850961 -0.09639215 0.55041003 -0.652811 0.35668576
-0.06767066 0.15377156 0.028353032 -0.09956886 -0.09854754 0.16973245 0.19903913 -0.12983489
-0.24338277 0.02964188 0.104452334 0.14421564 0.45160246 -0.98386484 0.22573443 0.2085725
-0.05452423 0.99345434 -1.374313 0.3681479 0.31333092 -0.008726305 0.4244124 -0.85262704
0.17248796 -0.0017927374 -0.038807236 0.01756861 0.054493323 -0.12296969 -0.030136213 -0.012159791
0.068422094 0.009483645 0.053503882 -0.10444554 0.01223654 0.41747448 -0.605753 0.27887097
-0.11682165 -0.27312666 1.00486 -0.9975967 0.26554206 0.070637375 -0.18438043 0.67523354
-0.56173384 0.21136877 0.013314024 0.09079782 -0.01233147 0.45244887 0.14817497 0.326775
0.012202046 0.43203628 0.30342484 -0.3898021 0.079836 0.3840215 0.24973084 -0.6344509
-0.43673444 0.18218453 0.15051991 -0.29078603 -0.366597 0.2013876 0.095821396 -0.22597203
-0.22068535 -0.053306114 0.07252631 -0.22811104 -0.06409718 -0.12484576 -0.14953822 -0.20722392
-0.30019262 -0.057241205 0.35548654 -0.0028868958 -0.46093842 -0.14470677 0.14182295 0.06419827
-0.6858396 -0.449139 0.27441573 0.08642729 -0.447016 -0.5147481 0.2943458 0.39330637
-0.067332886 -0.2388321 0.13712025 0.31872323 0.010193122 -0.21937115 -0.11346024 0.109099664
-0.052726068 -0.0777414 -0.030501716 0.25625727 0.20725909 -0.14532642 0.05523548 0.09558736
0.14715703 -0.42278683 -0.26417387 0.15100738 -0.052752834 -0.3290982 -0.31375545 0.38934916
0.1586753 0.05872272 0.13700664 0.27396888 0.326881 0.06022836 0.003837458 0.03335232
0.29630962 0.037432343 0.0075347507 -0.07294849 -0.3965641 -0.06767512 0.43873426 0.00822057
0.23725884 -0.13050143 -0.87462604 -0.21737635 0.4454037 0.07590816 0.5311161 -0.0063174926
-0.82537675 -0.049520932 -0.026150579 0.0011317219 0.53387433 0.19361877 0.08145192 -0.005240837
-0.08391394 0.20569155 0.06371822 0.22516307 -0.20168932 -0.2610315 -0.11750001 0.50065243
0.11275988 0.24385305 -0.17363645 -0.7341654 -0.3599609 0.5546374 0.0047108512 0.49796203
-0.001846584 -0.7910986 -0.18844743 -0.20151314 -0.22263241 0.3904991 0.04456073 -0.32341
-0.06156703 -0.045494735 0.028187135 -0.054135505 -0.348812 0.03982374 -0.04302262 -0.03201752
0.51940405 -0.15373509 0.16123657 -0.20719202 -0.5986009 0.0030334513 0.5384915 0.08538886
0.37390584 0.12339064 -0.59642464 -0.100605994 0.14703707 0.09881416 0.35502633 0.14141737
-0.037036695 -0.05993312 0.06147947 0.2626807 -0.114858076 -0.15199453 -0.07973403 -0.24097283
-0.4851317 -1.2073336 -0.257915 0.34690624 0.082974374 0.27651715 0.30103064 0.7007222
-0.10407525 0.13231839 0.6501198 0.22239177 0.07103825 -0.13552256 0.07847515 -0.096973784
-0.32830086 -0.04622716 -0.042818055 -0.46357983 0.46526828 0.09327597 -0.09700899 0.28090262

cn1.bias f4 [6]
00000000: 6c9b 23be a0ab 83be 2484 bdbe 6640 aabe
00000010: d624 c83b 829e 0c3e
-0.15977257 -0.25716877 -0.37014878 -0.33252257 0.006107907 0.13732341

cn2.weight f4 [16, 6, 5, 5]
00000000: d89f 5f3e cf7f 6d3e 3b09 dd3e d0c2 c33e
00000010: e07b e43d 42d1 c4bc 3939 b53b 31b6 863e
00000020: 5167 cf3d ce02 3bbe fba9 f6bd 4ac1 af3d
00000030: 581c a03d f610 80bc 8261 023e d148 b43d
00000040: c9e2 953e a5ac 0f3e 4275 3f3e eb4f 083e
00000050: 33fa 08be 3877 67bd 5b51 4bbd fbab 2a3e
00000060: eb43 0abd 4059 80be 6720 453e da5c 423b
00000070: ea37 e1bc 0e67 68be 52dd 7d3e 8bd9 e8bd
00000080: 0648 e73e 79dc 623e 182d 833d c59a 2e3e
00000090: 44b0 e33e 50cc d13e 2223 3a3e e7a0 34bf
000000a0: da96 0e3e dc30 973c f671 9b3e c07f 29bf
000000b0: 8176 15bf 6daa 063e 1b23 6dbe 814d 8dbe
000000c0: 9328 b4be 64c6 00bf 444e 35be c802 34be
000000d0: 0995 9bbe 70ee f0be 35c2 e9bf b56b 5dbc
000000e0: deef b2bd 48a3 36bf 3871 21bf 08f1 d9bf
000000f0: f8b2 6a3d 0e1d 29bf 565b 74bf 01d8 8abf
00000100: 265a d4bf e0be 18be e974 2bbf d88a 5dbf
00000110: f3c9 ebbe 6e8d e0be 1133 693d 2ace ebbc
00000120: aa07 3cbd 54f0 f3bd 1d27 be3d 324a 2abe
00000130: 401c 93bd 1218 3cbe d6cb 88bd 0df3 8dbe
00000140: 457e 4abd 3c1b 79be 7e8c 913c 4ce7 19bf
00000150: e637 25be 5e52 913d 924c 7bbe 1d62 24be
00000160: b924 3dbf 8593 4bbd 5a0a 7b3d 125c a8bd
00000170: 88ce 91be 1deb 2ebf 3f9c eabd f371 cbbd
00000180: 979b babd f3e6 a7bb 5d51 35be 5e42 7c3e
00000190: 3e58 fcbd d061 aebe 6434 833d 0b77 4f3e
000001a0: 1fa7 2e3c f42c 853d 1b44 183e 0d27 323e
000001b0: 691c 723e 9992 5cbe ba42 c03e cef0 0cbd
000001c0: bb1c 023f 955d 95be 2853 9cbe 40b9 a83e
000001d0: ccf3 e33d 6c72 533d abf9 02bf 5a88 16be
000001e0: ea99 e03e abd1 b13e 7082 aebe d9a8 fdbe
000001f0: 9fd3 2a3d 1f9e c33d 1fd9 e93c ad93 aa3c
00000200: f995 dd3c c946 1e3d 0c8c b13e 3905 d9bd
00000210: 6aba 36bd b690 de3d a8bc 3f3e d69b 9bbd
00000220: 6cce 86be fba9 cebd 7f45 5cbd 4c38 193e
00000230: e116 41be cc6e 19be 87c4 243e 65e7 22bd
00000240: 60b6 123d 6049 dabe 6edc 01be 1de8 913e
00000250: 8361 273d bb3e b83e b461 9f3e c284 97bd
00000260: 4a7d febd 7fb0 ab3c e81e c0be dd92 013e
00000270: fb17 79be b405 b3be dad0 12bf 58ae 11bf
00000280: 98f6 66be 15b6 87bf ee69 e4bf e608 17c0
00000290: cae0 64bf b6b5 7fbe d2a0 cbbf af94 f8bf
000002a0: 52c3 e1bf 4889 8bbf 7a5a 25bf 4eb1 9dbf
000002b0: 72c0 89bf e3fe aebf e945 a8bf 909c 8e3d
000002c0: 8462 aebc 4549 1dbd 1919 d0bd 2aab 703e
000002d0: 5117 62be 3e18 4dbe 0941 143e 89eb bfbd
000002e0: 9418 a13e 0832 c23d 1a4b 643e fb10 963e
000002f0: dc58 003e 39ca 7d3e db4b 45be 093e 453e
00000300: 083f 953e 3ac0 f23c 0bf5 5f3e 9e93 38be
00000310: 8f65 ebbd 1165 b0bc f2fa 8fbd 8b52 b63d
00000320: 5e68 743d ca07 033e b1c0 15be 5220 503e
00000330: 0ad4 ac3d 63a6 49bc a2fb b2be fc24 c3bd
00000340: 1c32 ad3d 39b1 93be a8b5 af3d 9353 743c
00000350: c54c 093e 5611 653e 613f 3ebc ab6e a43e
00000360: b7be 15be 1051 7ebe 3794 e1bd 7425 3cbe
00000370: 1db8 c2bc 7ebf b63d 4c79 473e 7cb3 2bbd
00000380: 219a 66be 8854 4e3e 7518 e93d 64ba a83d
00000390: cbb1 db3b d735 d43d 3e2d 283e 8a47 82be
000003a0: 87fe 86bd 6458 f33c 81d0 cc3e c39c b73d
000003b0: ee02 1ebc d3d9 083d b5b5 49bd 1092 cc3e
000003c0: 31e2 2b3e 4173 11be e4a8 643d de92 673d
000003d0: 4341 2f3c 4c25 643d cebc 773d 42ab 953e
000003e0: 8813 423e d94c 13bd 6505 4a3e b0ac 2ebe
000003f0: 540e 123e 21e0 4c3d 6264 833e 86fa 473e
0.2183832 0.23193286 0.43171105 0.38234568 0.1115644 -0.024025563 0.005530503 0.26310876
0.10127128 -0.18262789 -0.1204414 0.08581789 0.07817906 -0.015633088 0.12732509 0.08802951
0.29274586 0.14030702 0.18697074 0.13311736 -0.13376693 -0.05651018 -0.049638133 0.16667168
-0.033756178 -0.25068092 0.19250642 0.0029657395 -0.027492482 -0.22695562 0.24791458 -0.11369618
0.45172137 0.22154416 0.06405085 0.17051227 0.44470417 0.4097619 0.18177465 -0.7055802
0.13924733 0.018455915 0.30360383 -0.66210556 -0.5838395 0.1315095 -0.23157923 -0.27598193
-0.35187206 -0.5030272 -0.17705637 -0.17579186 -0.30387142 -0.47056913 -1.8262392 -0.013514449
-0.08737157 -0.713429 -0.63063383 -1.7026682 0.057299584 -0.6605996 -0.9545187 -1.0847169
-1.6590011 -0.14916563 -0.66975266 -0.86539984 -0.46052513 -0.43857902 0.056933466 -0.02878483
-0.045905747 -0.11911073 0.09284804 -0.16629866 -0.07183123 -0.18368557 -0.066795036 -0.27724496
-0.049436826 -0.24326795 0.017767187 -0.60118556 -0.16134605 0.070957884 -0.24540928 -0.16053052
-0.7388416 -0.049701232 0.06128917 -0.08220686 -0.28477883 -0.68327504 -0.11455583 -0.099338435
-0.09111708 -0.005123967 -0.17706819 0.24634692 -0.12321518 -0.34059 0.06406477 0.20260255
0.010659962 0.06502715 0.1486973 0.17397709 0.2364365 -0.21540298 0.37550908 -0.034409337
0.5082509 -0.2917296 -0.30532193 0.32953835 0.11130485 0.051622793 -0.51162213 -0.14700451
0.43867427 0.34730276 -0.3408389 -0.49542883 0.041705724 0.095516436 0.028545914 0.02082237
0.027049052 0.038641725 0.3467716 -0.10596699 -0.044611372 0.10867445 0.1872431 -0.07598083
-0.26329362 -0.10091015 -0.053777214 0.14962882 -0.18856384 -0.14983672 0.16090594 -0.039771456
0.035818458 -0.42634106 -0.12681744 0.284974 0.04086448 0.3598536 0.3112923 -0.073983684
-0.12426241 0.020958183 -0.3752358 0.1265368 -0.24325554 -0.3496529 -0.5734993 -0.5690665
-0.22555006 -1.0602442 -1.7844827 -2.359918 -0.894055 -0.24971661 -1.5908453 -1.9420375
-1.7637732 -1.090127 -0.6459118 -1.2319734 -1.0761855 -1.3671535 -1.3146335 0.06963456
-0.02128721 -0.038399953 -0.10161037 0.23502794 -0.22079207 -0.20028779 0.14477934 -0.09371097
0.31464064 0.09482199 0.22294274 0.2930983 0.12533897 0.24784173 -0.19267218 0.19261946
0.29149652 0.029632676 0.2187082 -0.18025061 -0.1149398 -0.021532567 -0.07030286 0.089024626
0.059669845 0.1279594 -0.14624287 0.20324829 0.08438881 -0.012307736 -0.34957606 -0.095285386
0.08456823 -0.28846148 0.0857957 0.014912504 0.13408192 0.22369894 -0.01161179 0.32115683
-0.14623533 -0.2483561 -0.11014598 -0.18373662 -0.023769433 0.08923243 0.19479865 -0.041919217
-0.22519733 0.20149434 0.11381618 0.08238676 0.006704544 0.10361832 0.16423509 -0.25445205
-0.06591516 0.029705234 0.40002826 0.08965447 -0.009644253 0.03341086 -0.049245555 0.39955187
0.16785504 -0.14204122 0.05582513 0.056536548 0.010696712 0.05569963 0.060482793 0.29232222
0.18952763 -0.03596196 0.1972862 -0.17058063 0.14263278 0.050018433 0.25662524 0.19529161

cn2.bias f4 [16]
00000000: ac3e ae3f cfaf a63f aada 513f c448 0dbc
00000010: 6293 383f b749 833f cfd9 b2be 24a1 02bf
00000020: 4bce 11bf de35 95bf de43 dfbe 25aa 373c
00000030: bec3 a13f 3c59 883f 8b4f 41bd fe81 033e
1.3612876 1.3022403 0.8197428 -0.008623306 0.7209989 1.0256871 -0.349318 -0.5102713
-0.56955403 -1.1657064 -0.43606466 0.011209999 1.2637861 1.0652232 -0.047195 0.12842557

fc1.weight f4 [120, 400]
00000000: 262d 7d3f 183c 353f 66ae b33e 04a3 97bd
00000010: 8a60 d33d 4327 ea3e 5585 683e a266 06be
00000020: 3692 79bd 9599 243e d24b 303f 5aed 2b3f
00000030: 1d82 943e 9765 943d 36e6 84bf 7e81 55be
00000040: c0f3 9a3d c264 95be 1bb6 37bf 2382 f3bf
00000050: 6e3e cebf 7926 8ebf 1b4a 44bf 186d 7abe
00000060: d5db abbf 598e fc3e 4be6 0cbe ddca eabd
00000070: 0391 b2bc 0f09 d13e f38f 6b3e 40af 193f
00000080: 5b2f d6be 5c31 4e3d 00db 87bc 314a adbe
00000090: 88ab ba3e cc72 673d eea3 d03e c799 c13c
000000a0: f832 a7bf 3d63 a4bf 8c43 97bf 4ee2 9ebf
000000b0: 84fd a1bf b0ed 833f 4213 f23e 3c8d a53d
000000c0: 521f 0abf b906 cf3d acb0 bebc 7360 85bd
000000d0: a39e 58bd 343d ca3e 9c55 09be ba12 c03e
000000e0: f875 443f c26c 283f 6509 213f 5b38 703e
000000f0: 13b1 c6be 0f76 b63e 4881 973e f0f5 403f
00000100: a389 c3bc 7499 88be 98d7 1bbe 97d2 32bf
00000110: 3211 9cbe 08ec 92be 35ab 043e 0a9a 50bf
00000120: 4543 ddbe 59c7 813e 706a a7be 95a7 313c
00000130: 1a6e 0c3f 68c8 603e 3b7c 15be 8604 63bf
00000140: 713f f7bd 26ab 9dbd 840b 863d 4177 8c3d
00000150: c7ff 7dbe af17 f6be 9bd5 90be eb01 4b3e
00000160: 6868 793e 59aa cbbe 28c5 1dbf 235c 45bf
00000170: b817 32bf 8b2d 0ebf bd54 01bf 910f 3fbf
00000180: 3ec6 23be 9a99 03bf 8300 dbbe fa1b 23bf
00000190: 015f 543f 54e3 393e e93c bd3e f033 a23e
000001a0: 03d1 6e3e d388 d33e 675f c43d f496 203e
000001b0: bd3b 9d3e f649 b53e 7013 1d3e eb2e 42bd
000001c0: c16e 48bc 852a 493d 5124 863b 9a4d 0dbe
000001d0: 958d febd 2860 25be 1b86 f3bd 29b7 1bbf
000001e0: ed67 85be 1424 13be 5624 6a3e e05b a63d
000001f0: 2fc9 00be eff7 bd3e f685 7abe e2c0 42be
00000200: 5bf1 ac3e 9990 9dbe feeb 623e 6f94 073f
00000210: cae6 b73d 8f2a cd3e c6fb bebd 69ee 09be
00000220: 12c2 92be a8ed 36bd 780d b6be 5101 ebbe
00000230: cc8f e03e 0f11 4e3e e7ed 353e eb39 f53e
00000240: b103 6abe faab 913f d395 263f 94c7 953f
00000250: b242 b03f eb89 7d3f 498b 953e af7b 753e
00000260: 5756 d93e c619 fd3e 56a0 9bbd 26c2 4cbd
00000270: e3c4 033c 2f59 ba3e cbcf 463e afe6 7abe
00000280: 18d2 07bf a29a a9bd 1f4d a4be 412d 85be
00000290: 6487 91be 300a 02bf de88 48be 0ed3 3cbe
000002a0: 7f56 da3e 65ec b5bd dcb4 a3be ef2c 95be
000002b0: ff2b e8be 39b5 ddbe 5311 4fbf ab1a 263d
000002c0: eeb1 d5be e63c 43bf b387 92be 7c44 a83a
000002d0: bcbd 153e 39a3 0ebe 562b 80be c6ec 5fbe
000002e0: f1e7 1abf 402a b9bc ee47 b9bd 74d9 83be
000002f0: c0c4 10bf 48d4 33bf 5d57 9a3d 295e 6dbe
00000300: 5a01 d73d 5a17 a5bd d80c 82be 3aee b83e
00000310: 1856 983e 8671 fe3e ead0 143f e886 d33e
00000320: 10ae 08bf 5727 c7be 1b34 b0be debc 00bf
00000330: e854 d1bd 8829 5bbc 0537 d2bd 7b5c a0bd
00000340: cab1 2ebe faaf 35be 663f 6c3e 55df 9a3e
00000350: afa4 633e 9ae4 eb3d 235e 04be 12a2 1dbf
00000360: 7aaa 9fbd b1d1 0fbf 5bcf 2abf 17f4 2cbf
00000370: aa29 a0bd fd89 02bd e6fd 23be 3688 b4bd
00000380: f76f 943e b026 833d 4bf7 cf3d 3454 a03e
00000390: 8190 d53d d12c 283e 5f5b 313d 04a5 f13c
000003a0: 06c2 3d3e dc33 853e b22e b73d c89e 1c3e
000003b0: 680f 18bf c56e 05bf b999 52be 5edc 1fbe
000003c0: 6b7d 823e fdbe a23d 7eca c73d 816b 7c3e
000003d0: 2e10 973e c8f2 c1bd 8390 be3d 4dc2 5d3c
000003e0: e128 793e 776e 653e 5f82 473e fc66 a9bd
000003f0: 5d5d 3f3c 5527 b33d 8046 69be 9bc9 89bd
0.98897016 0.7079482 0.35093993 -0.0740414 0.10321148 0.4573308 0.22707112 -0.13125089
-0.060930453 0.16074212 0.6886569 0.67159045 0.2900552 0.07245939 -1.0382755 -0.20850179
0.07566023 -0.29178435 -0.71762246 -1.902409 -1.6112802 -1.1105491 -0.76675576 -0.24455678
-1.3426462 0.49327353 -0.13759725 -0.11464474 -0.021797663 0.40827224 0.23004131 0.60033035
-0.41833004 0.05034004 -0.01658392 -0.33845666 0.36458993 0.056505963 0.40750068 0.023632897
-1.306243 -1.2842785 -1.1817489 -1.2412813 -1.2655492 1.0306911 0.47280318 0.08083579
-0.5395404 0.10108704 -0.023277603 -0.06512537 -0.052885663 0.3949982 -0.13411564 0.37514287
0.76742506 0.6579095 0.6290496 0.23458998 -0.38806972 0.35636947 0.2959082 0.7537527
-0.023869341 -0.26679575 -0.15218961 -0.69852585 -0.3048187 -0.28695703 0.12955935 -0.81485045
-0.43215385 0.25347403 -0.32698393 0.010843177 0.548555 0.21951449 -0.14598171 -0.8867878
-0.12072647 -0.076986596 0.06545165 0.068586834 -0.24804603 -0.48064944 -0.28287968 0.1982495
0.24356234 -0.39778402 -0.6162896 -0.77093714 -0.6956744 -0.55538243 -0.50519925 -0.7463313
-0.15993592 -0.5140625 -0.42773828 -0.63714564 0.82957464 0.18153125 0.36960533 0.3168025
0.23321919 0.41315326 0.09588509 0.15682584 0.3070964 0.3540799 0.15339446 -0.047408026
-0.012233437 0.049112815 0.0040936847 -0.13799134 -0.124293484 -0.16149962 -0.11890813 -0.60826355
-0.26055852 -0.14369231 0.22865424 0.081229925 -0.12576745 0.3710322 -0.24465165 -0.19018891
0.3377789 -0.30774382 0.22160336 0.52960867 0.089795664 0.40071532 -0.09325366 -0.13469853
-0.2866369 -0.04466024 -0.3555715 -0.45899442 0.43859708 0.20123695 0.17766534 0.4789575
-0.2285297 1.1380608 0.65072364 1.1701531 1.3770354 0.9903857 0.2920783 0.23972963
0.42448685 0.49433726 -0.07598941 -0.049989842 0.008042547 0.36396167 0.19415204 -0.24502061
-0.5305495 -0.08281447 -0.3209009 -0.26011088 -0.28423607 -0.50796795 -0.1958346 -0.18439886
0.42644116 -0.08882979 -0.31973922 -0.29135844 -0.45346066 -0.43302324 -0.8088581 0.040552776
-0.41737312 -0.762648 -0.28619155 0.0012837793 0.14623159 -0.13929452 -0.25033063 -0.21867666
-0.60510164 -0.022603154 -0.090469226 -0.2575184 -0.56550217 -0.7024579 0.075361945 -0.2318045
0.10498305 -0.080610946 -0.25400424 0.36119252 0.29753184 0.49695987 0.5813128 0.41313863
-0.533906 -0.388972 -0.34414753 -0.5028819 -0.10221273 -0.013376601 -0.102644004 -0.07830139
-0.17060009 -0.17742911 0.2307106 0.30248514 0.2223079 0.11518212 -0.12926535 -0.61575425
-0.07796188 -0.5617934 -0.6672265 -0.6755995 -0.07820447 -0.031869877 -0.16014823 -0.08815043
0.28991672 0.064038634 0.10154589 0.31314242 0.104279526 0.16423346 0.04330003 0.02949763
0.18531045 0.26016128 0.08944453 0.15294945 -0.5939851 -0.52122146 -0.20566453 -0.15611407
0.2548631 0.079465844 0.09755419 0.24650384 0.29504532 -0.09470135 0.09304907 0.013535094
0.24332 0.2240542 0.19483326 -0.08271596 0.011679974 0.08747736 -0.227808 -0.06727906

fc1.bias f4 [120]
00000000: 1956 51be 8d15 13bc c63f 6ebf 1d8b 8f3e
00000010: b763 62bd e8a1 edbe 34e2 33be 24e7 2e40
00000020: 9f75 a8bd 327e 8cbd 3cbc cebe 6afd 3bbc
00000030: f5bf 3d3f 7984 653f bdf8 0cbd 8dba 743f
00000040: c75f 21bb 3bd5 1fbe 31dd d13d bf30 b1be
00000050: 6053 363e 3430 0d3f ee64 39bd 8ca8 cfbd
00000060: 36bb adbe 1f99 c43f 44a2 6f3f a630 983f
00000070: 7730 8fbf 8836 743f 6432 1a40 0d3e afbd
00000080: a938 563f 94ea 30be 9d4d 6dbd 9251 953e
00000090: 1612 843f 8540 b33f d50c 5abd dd4b 3bbe
000000a0: 698e 45bf abac dc3d 2040 c6bd c413 b93f
000000b0: 4274 1ebf 030a 28bc 4b30 61bf 3218 a8bd
000000c0: 2de2 cebd 5083 0abf 484c df3f 215b 203f
000000d0: ca99 203e 7e32 95bd 8c04 703d de21 6ebd
000000e0: 4c04 89bd 247f 3d3f 98b0 1dbd ae4e 47be
000000f0: c687 923e c0f6 85bd 2b4d 46bf aaad d93f
00000100: 6623 23c0 9e5d 0640 2777 0140 d451 dc3e
00000110: 69d6 e03f d144 8a3f d9bc d1be 1b98 823f
00000120: 69a2 703f 2a7f dabc bf62 0a40 e3b2 64bd
00000130: 5d2e 6abd b405 cf3f b175 c83f 34e4 2fbf
00000140: c308 37bd 1c91 f1bf f19b 75bd c1b0 50bf
00000150: a40f a6be f81c acbd 4ec6 803f c744 973f
00000160: 002c 953c d6f2 4340 a8a0 d13f 1e0e 32bf
00000170: 631b e8bd 72ad c4bd 4401 20bf eaa9 7e3a
00000180: 72b7 acbe 904e 01bf 6e03 b43d 13e3 0cc0
00000190: e5d6 95bf e105 963b bb45 00bc 0610 3b3f
000001a0: c483 8abe 5ef4 23bd dd9a 96bf b0e0 0fbf
000001b0: 898b c53f 36f6 96bd ea50 b43f 95e3 c8bd
000001c0: 248d c73f 6b05 02c0 8056 383f 7c63 0ac0
000001d0: c514 733c 8590 033e 8eb2 55bd b3eb 3540
-0.20443 -0.008977306 -0.9306606 0.28035823 -0.055270877 -0.46412587 -0.17566758 2.7328577
-0.082255594 -0.06860007 -0.40377986 -0.011473993 0.7412103 0.8965526 -0.034416903 0.95597154
-0.0024623738 -0.15608685 0.10247267 -0.34607503 0.17805243 0.5515168 -0.04526227 -0.1013957
-0.33931893 1.5359229 0.9360697 1.1889846 -1.1186665 0.9539571 2.4093256 -0.08556757
0.83680207 -0.17276984 -0.057935346 0.29163796 1.0318019 1.4004065 -0.053234894 -0.18290658
-0.77170426 0.10775121 -0.096801996 1.4459157 -0.61896145 -0.010256293 -0.87964314 -0.0820774
-0.10101733 -0.54106617 1.7445154 0.6263905 0.15683666 -0.07285021 0.058598086 -0.058137767
-0.06690273 0.74022126 -0.03849849 -0.19463608 0.28619212 -0.065412045 -0.774615 1.7006123
-2.5490355 2.099464 2.0228975 0.4303118 1.7565433 1.0802251 -0.40964392 1.0202669
0.9399782 -0.026671965 2.162277 -0.055834662 -0.05717312 1.6173615 1.5660917 -0.68707585
-0.04468609 -1.8872409 -0.05996317 -0.81519705 -0.32433808 -0.08403963 1.0060518 1.1817864
0.018209457 3.0616965 1.6377153 -0.6955279 -0.113333486 -0.096033946 -0.6250193 0.000971465
-0.33733708 -0.505105 0.08789717 -2.2013595 -1.1706206 0.0045783375 -0.007829125 0.73071325
-0.27053654 -0.04002797 -1.176601 -0.5620222 1.5433208 -0.0737118 1.4087193 -0.09809033
1.5589948 -2.0315807 0.7200699 -2.162322 0.014836495 0.12848099 -0.052172236 2.842511

fc2.weight f4 [84, 120]
00000000: 49a3 393e febf a8bd d494 923c 7d71 40be
00000010: c3e1 42bd ee1e 243e ee51 7d3e 4185 723e
00000020: 6731 813d 78d6 843d 1791 a5be b8d5 0bbd
00000030: 9a3a 7f3e d7e6 34be 1159 493d 6e61 dd3c
00000040: e230 2c3d dafb cb3e 83fa 3d3e 3207 dcbd
00000050: 7737 d73e 8649 573c 6fa1 b7bc 1253 a13d
00000060: faa7 3b3f 522d dd3e f9a6 ce3b 9785 4dbe
00000070: 58a4 053e 6248 a13e 1a2e 9b3e ffdf 41bd
00000080: d44c c33e 821f 773e ece6 ec3d 05b4 913f
00000090: a5ee 143e 9bd9 ac3e 6cd4 af3d d1cb 10be
000000a0: 7a2c ca3e 5f53 1fbe 418d d4bd bd7c 43bd
000000b0: 12e9 2cbe f9b9 333d c2be 043f ab20 c33d
000000c0: 59b1 fa3c b434 3a3f 2caf ea3e 28bd ca3d
000000d0: 9975 1ebf adb8 863d 4f39 de3e 77da ce3d
000000e0: 5a28 9dbd 1332 673d 69b9 68be 1a9b 0d3d
000000f0: 88c2 6e3d 68e1 6c3d bac7 c53e 2682 36be
00000100: 6d1f d63d bbe3 223f 09d7 a33e c538 273f
00000110: 560f 2d3f d49d cdbd 06a2 ea3e 2ae3 e23e
00000120: f4b3 85be 7705 0a3d 6074 533f b9fb c43c
00000130: 6e7d 05bc 34f5 d93e 0dbf f83e 1993 223f
00000140: 3977 9cbd 1f2b c53e 286e 69bd c9a5 2a3f
00000150: 5860 e83e c653 f6bc ea71 a73e bd58 efbd
00000160: ec83 37bd 75c4 b23e 809a b23e c248 b63e
00000170: e4f4 6c3d 9049 df3e 7209 a53f 58fa 603d
00000180: 00ce 533d 0a61 1a3e c5aa 003e ff29 403e
00000190: e7f5 5bbe f818 9ebd 012c e53e b9b1 073f
000001a0: 1026 7c3e ab6e 1c3d 2d49 bdbe 3531 dcbd
000001b0: 5fcc 703f 9fe4 ba3c 4608 3b3f 5083 363d
000001c0: 3b3b 87bc 563a c5be c534 443f 518e 63be
000001d0: 6513 4d3c fe22 9abe a1ca 10bd e902 bc3d
000001e0: 5a6c 4a3d 3d6a 0d3d 65f4 5cbd 83bf a2ba
000001f0: 3808 23bd 99e4 22bd bda8 2fbd 426b f2bd
00000200: a1f6 90bc 2cf9 74bd e419 203c 8a60 b1bd
00000210: 94c9 3d3c e782 35bd 05f0 ae3d 481e 42be
00000220: e3b2 e93a 10f1 36be 385e 5abe 8760 7dbe
00000230: 10c9 5abd 89a7 033d dcca 623d 7049 1f3d
00000240: f2f1 a33d 5f2d 133d 4daa 5fbd ddff 56be
00000250: de00 2dbe f170 ae3b d914 83be 7e8f 50bd
00000260: cf12 b8bd e402 56bd 4ca9 5cbd 7951 4e3d
00000270: 036e 20be 45f3 91bd 4fbb 943d e0a4 43be
00000280: 8b1b 40bd f5e2 2e3d a699 853d 29ec 29be
00000290: 45bc 46be 6523 613d 7c64 e23b 6001 4fbb
000002a0: 388b 7e3d c00b 343d daaf 18bd daca e03d
000002b0: 86de 5ebd 0c2a 983c 765a 1ebd fe14 b23d
000002c0: 6d0f 8f3d fb14 2e3d c236 423d 98e4 9fbb
000002d0: 48a4 df3d a74c 92bd 75d6 f5bd 128a 82bd
000002e0: c7cc 433d b9a6 a6bd 03fb 97be cc01 2d3d
000002f0: 9194 9e3d 60ce 0a3c e955 1d3d 2c24 dbbd
00000300: 089d 8ebe b3cd 5abd 0576 26be 4864 15bd
00000310: 3066 e4bb 792d b23d 8f2b 41bd 7a4c 4bbe
00000320: 4c80 c03d b5ce 1dbe c96c a7bd 4555 5c3d
00000330: a6ac 123d 2e1f 8f3d 6fd6 d8bb 2220 a5bb
00000340: 677f 95bd a389 813d 5bb4 4dbc 281d 92bd
00000350: c614 0bbd cf4e 1cbe 8ca2 57bd 9d5e 2fbd
00000360: dad4 8fbd 9a90 803d 3c8e 94bd 4aad 77be
00000370: 014b 10bd 0218 623d fd9e 71be c39f 393d
00000380: e58d 31bd a9f9 1cbc 3c83 6bbe 9ab9 a03d
00000390: 382e 17be ccf1 4cbd b751 60bd 2617 533d
000003a0: a12f 393d b9fe 92bd 1b51 adbd b94e 39be
000003b0: 9056 a43d cc6f 18be 1eb9 9bbd 229b d8bd
000003c0: f8f1 5d3e a6ba e83c 201d 94bd 02b8 a83e
000003d0: 993e 843d aea4 dc3e 3403 893e 729d e83d
000003e0: b9ea d0bb 4c39 493d 8700 4e3e 5856 873d
000003f0: 5633 f93e 4aa8 5a3e 691b 833d c04b c1be
0.18128695 -0.082397446 0.017893232 -0.18793292 -0.047578584 0.16027424 0.24738285 0.23683645
0.06308251 0.06486219 -0.32337257 -0.034139365 0.24924698 -0.17666183 0.049157206 0.027023997
0.042038806 0.39840585 0.18552594 -0.1074356 0.42034504 0.013140088 -0.022415845 0.078771725
0.73303187 0.4319864 0.006306526 -0.20070492 0.13050973 0.31500536 0.3030861 -0.04733276
0.38144553 0.24133113 0.11567482 1.1383063 0.1454416 0.3375977 0.08585438 -0.1414025
0.39487058 -0.15559147 -0.103785045 -0.04772638 -0.16885784 0.04387853 0.51853573 0.09527715
0.030602144 0.7273667 0.4583677 0.0989936 -0.6189819 0.06578193 0.43403098 0.101002626
-0.07673712 0.05644424 -0.22726978 0.034571745 0.05829099 0.05783215 0.38628942 -0.17823085
0.10455213 0.6362874 0.31999996 0.65321 0.67601526 -0.10039869 0.4582674 0.44313937
-0.26113856 0.033696618 0.8259945 0.024045812 -0.008147581 0.42569888 0.4858326 0.63505703
-0.076399274 0.3850946 -0.05698982 0.6665922 0.45386004 -0.030069243 0.32704097 -0.11686847
-0.044803545 0.3491551 0.348835 0.35602385 0.057850733 0.4361081 1.2893507 0.054926246
0.05171013 0.1507608 0.12565143 0.1876602 -0.21480523 -0.07719606 0.44760135 0.5300556
0.24623895 0.03819148 -0.3696989 -0.10751573 0.94061846 0.022814093 0.730595 0.044558823
-0.016507735 -0.3852107 0.7664302 -0.22222258 0.012516831 -0.30104822 -0.035349492 0.091802426
0.04941974 0.034525145 -0.05394401 -0.0012416694 -0.03980276 -0.03976879 -0.04288553 -0.11836864
-0.017695727 -0.05980794 0.009771798 -0.086609915 0.0115837045 -0.04431429 0.08541874 -0.18956864
0.0017829802 -0.17865396 -0.21325004 -0.24743854 -0.053414404 0.032142196 0.055369243 0.038888395
0.08005132 0.03593194 -0.05460577 -0.20996042 -0.16894862 0.0053235223 -0.25601843 -0.050918095
-0.089879625 -0.05224885 -0.05387239 0.050370667 -0.15666966 -0.07126478 0.07262289 -0.19105864
-0.046901267 0.04269691 0.06523447 -0.16593994 -0.19407757 0.054965395 0.0069089513 -0.0031586513
0.062144488 0.04395652 -0.03727708 0.10976191 -0.054411434 0.018574737 -0.03866049 0.0869541
0.06985364 0.042500477 0.047415502 -0.0048795454 0.10920006 -0.071435265 -0.12003795 -0.06373991
0.047802713 -0.081372686 -0.29683694 0.04223804 0.077431805 0.008472055 0.03841201 -0.107002586
-0.2785418 -0.053418826 -0.16255958 -0.03647259 -0.0069701895 0.087000795 -0.04716068 -0.19853392
0.09399471 -0.15410884 -0.08175046 0.053792257 0.03580918 0.06988369 -0.0066173594 -0.005039231
-0.07299691 0.0632508 -0.012555207 -0.07134467 -0.033955358 -0.15264438 -0.05264525 -0.04281484
-0.0702302 0.062775806 -0.072536916 -0.24187198 -0.03522778 0.055198677 -0.23595805 0.045318376
-0.04334821 -0.009581008 -0.2299928 0.07847901 -0.14763725 -0.050035283 -0.05476543 0.051535748
0.045211438 -0.07177491 -0.08462735 -0.18096437 0.08024323 -0.14886397 -0.07603668 -0.10576464
0.21674335 0.028409313 -0.07232118 0.32952887 0.06457252 0.4309439 0.26760256 0.11358155
-0.0063756374 0.04912691 0.20117389 0.06608266 0.4867198 0.2135326 0.064017124 -0.37753105

fc2.bias f4 [84]
00000000: 9b9c 3b40 f54d 87be 25df 83be 3661 933f
00000010: 96fa 7040 6d05 073f ed85 24bf 6da0 4540
00000020: 00a8 233f 56d2 7c40 dcbb ffbe 18e0 37be
00000030: e03c e53e 25f1 dabe af4a c4be 23e7 e6be
00000040: 79f1 2a3f c95a f63d 8cf2 923d 3731 5b40
00000050: a10e f23f 26e6 58bf 7cdd 5940 2f2a 0740
00000060: e3f6 38bf 3be5 1dbf ab29 9d40 5ff8 84be
00000070: a823 e9be 6687 3ebf cf4f 89bf c2e2 763f
00000080: 822b 8d3f fbce fdbe 12d6 d8bf 4733 933e
00000090: cd49 22bf a937 31bf 7331 da3e bd65 dcbe
000000a0: bb36 8d3f 8be0 aebe a8d5 18be 6ac7 c6bd
000000b0: ad0f 43bf 1ca9 b83e 5d35 0dbf d5d2 4cbf
000000c0: c199 c5bd f3cf 84bf 44b6 bf3f 521d dabe
000000d0: a706 85bf 1571 4540 01f9 49bd 9100 83be
000000e0: a525 e43d 8413 d53f f7c9 74be 9c62 7cbe
000000f0: 913f c1be d2b1 733f 0b63 1dbf fdb4 edbe
00000100: cc2c 28bf 26b0 a93f 1a1a 03bd 8682 af3f
00000110: 99fd aa3e a5e2 5b3f c124 fcbe 0ce0 6cbe
00000120: 87ec 3b3f aa5d f73f 8971 64be e987 943d
00000130: 6066 abbe a04a 54bf 9fa4 93be 584a 51bf
00000140: 38f7 4ebf f3ac 253e 4012 9f3f 1c78 81bf
2.9314334 -0.26426664 -0.25756183 1.1514041 3.7652946 0.52742654 -0.64266855 3.0879166
0.6392822 3.950338 -0.49948013 -0.17956579 0.44773006 -0.42762104 -0.3833823 -0.45098218
0.6677471 0.12029035 0.071751684 3.4248788 1.8910714 -0.8472618 3.4041433 2.1119497
-0.7225172 -0.616779 4.9113364 -0.25970742 -0.45535016 -0.7442535 -1.0727481 0.96439755
1.1028903 -0.49571976 -1.6940329 0.2875006 -0.6339386 -0.69225556 0.42615852 -0.4304637
1.1032327 -0.34155688 -0.14925253 -0.09706004 -0.76195794 0.3606652 -0.5515955 -0.80009204
-0.09648467 -1.0375961 1.4977498 -0.42600495 -1.0392655 3.085027 -0.049309734 -0.2558637
0.111399926 1.6646581 -0.23905168 -0.24646991 -0.3774381 0.9519321 -0.6147925 -0.46427146
-0.65693355 1.3256881 -0.032007314 1.3711708 0.33396605 0.8589271 -0.4924679 -0.23132342
0.7340779 1.9325459 -0.22308935 0.07252485 -0.33476543 -0.8292637 -0.28836533 -0.81754065
-0.80845976 0.16179256 1.2427444 -1.011478

fc3.weight f4 [10, 84]
00000000: 8ec9 cdbe 9bc8 bfbe c484 5fbf 8ca0 b2bf
00000010: 37e4 61be d691 c8bf f067 90bf 72aa 3bbe
00000020: fe3f a5bf 935b aebe f61a a7be df9c 98bf
00000030: fde0 53be 25b7 cfbe 512d 53be 9cde 68be
00000040: eeea 35be 9019 adbe 1e40 67bf 95da bcbd
00000050: f5b9 b4be bcc4 09c0 6e07 63be cc30 35bd
00000060: 21cd 42bf 2643 7bbf a220 b0bd 06aa 9dbe
00000070: 334d febf 3041 6dbf f620 53bf 774f 83bf
00000080: b6f7 9cbe 3971 e6be c65b acbf 22f8 9bbc
00000090: 1869 7bbf f628 19bf 52b0 d2bf a5aa e5bf
000000a0: f08c ccbe 805d 3cbe 2d4c 03be 313b acbe
000000b0: 03eb c5bf 7aab 043d 6b8f 15bf 8a5d 3cbf
000000c0: 59a6 39be 633c 19c0 0ba0 95bf ba01 a1bd
000000d0: 837c b5bf 7c27 7ebd e762 63bc c256 75be
000000e0: 21f7 38bf 7112 06bf b396 3abf 1e78 3ac0
000000f0: 2f15 b3be b696 c3bf 2975 41bd 3962 b7be
00000100: fc88 53bf 0c8f c2bf 24f3 4bbd 6dc7 24bf
00000110: a162 38bf c7ac 2fbf deee 94bf 236f 08be
00000120: f6ab 133d b90e 123b cbe4 f9bc ca16 fcbf
00000130: 7c2b ddbe 3fd2 72bf 4c91 3abe 2dbe 55bf
00000140: ceb2 46bf de3d 85be 6232 8bbf 64e7 00bc
00000150: 07d2 c0be a931 b5be 682d b1bf 9e53 20c0
00000160: c893 07be 94a4 1ebf 64e1 e1be 01ed 52be
00000170: bcb2 37c0 fff9 90be a6f7 3ebe 26cc 1bc0
00000180: 0f96 3fbd 99d5 ddbe 5f8e d0be 83e8 42bf
00000190: c66b e8be 28d8 6abf 5aba ebbf 2d51 d1bd
000001a0: 4956 8dbe 7c45 efbf cc93 ebbd 25d7 52bd
000001b0: 8ef3 51bf ba6b 17bf be99 54be cf34 0ac0
000001c0: 5522 64bf ed55 12c0 1e7a abbf 9955 bfbe
000001d0: 18b8 6dbd 28c1 0dc0 54f2 dbbf 0fbb 85bd
000001e0: 3615 17c0 bb5b f0bf 405b 52bf 7ffd b6bf
000001f0: 762a ddbe 9096 65bf 1013 b5bd f171 c1be
00000200: a977 0dbf fc7f 47bc 8e7c d8bf 7b71 45bf
00000210: 9e87 e1bd 26fd 03c0 0b0e d9bf 10a5 323d
00000220: 133c b5bf 2097 ecbd 742b 0fbb 7c2a 4fbf
00000230: e395 90bf f5e6 e3bf 1305 d1bf 45c7 f2bf
00000240: 9b09 c0be c411 26bf 1297 fcbe 7c68 48bf
00000250: 73bf 8ebf 68b2 e1be 4d17 7ebd eb69 17bf
00000260: b338 b0bf ae13 1cbf efd6 08bf b819 c5be
00000270: 6c13 8bbd bc9e 8cbd 753b aebd 8cef b8bf
00000280: d6d5 adbf 655e 00bf d0eb 52bd f96f 9abf
00000290: 483b 03bf c403 90be b89c 41bf ad0c d8bd
000002a0: 8145 11bf e5d2 c3be a9cb 43bf f208 a0be
000002b0: 6900 9cbd 9413 b7bf d0ef 44bf 5af1 2bbe
000002c0: 2376 63bf 6558 6bbe 170b 17bf b461 18bf
000002d0: d90f 43be 0542 f2be 37fe bfbe 5c29 14bf
000002e0: 6534 8d3d 3e97 b3be 9138 c0bf b691 0cbe
000002f0: 8bf1 5dbe 1262 83be 2e07 20be 1bef f7bd
00000300: 75f0 8dbf 1d8b 22bf 8842 31bd eb1e 0abe
00000310: 6267 ecbf 20d4 98bf c851 b2bf 3030 77bf
00000320: 0e4f debe cbdc a2bf 170d f0bf bd48 3dbd
00000330: 9585 a1bf 7d1f 04c0 bdd0 c2bf ec0e 39bf
00000340: 3dcf 78bf bd47 84bf c309 c3bd 9287 a1be
00000350: b75a d7bf 099c f93b b076 66bf e87a 83bf
00000360: 000a 11be db53 35c0 9fd3 2abe fca1 05be
00000370: a969 b6bf a51f f43c 7223 5ebc ebec 693d
00000380: 94d6 36bf b866 26bf 6180 c2be d744 e8bf
00000390: 2d0d f0be 07b9 59bf 8061 41bf 990a 81be
000003a0: f28d 0abf c428 50bf 2c49 1fbd ecb1 58bf
000003b0: 2fe6 d0bf 8795 e8bf 83bd f7be 72f6 adbd
000003c0: ddfe a7bd 758f 88bd 0157 3fbe 0622 dabf
000003d0: dfe7 e0be b5d5 86bf e12f 1cbf 927f b6bf
000003e0: 3d8b ebbf 4696 8dbf 67ff afbf a8d1 6c3d
000003f0: 53ba 0bbf 7cce 17be 3b1a 2cbf c69e c5be
-0.40192837 -0.37457737 -0.8731196 -1.3955245 -0.22059713 -1.5669506 -1.1281719 -0.18326738
-1.2910154 -0.3405424 -0.32637757 -1.1922873 -0.20691295 -0.40569416 -0.20622756 -0.22741169
-0.177654 -0.33808565 -0.9033221 -0.09221379 -0.35298124 -2.1526327 -0.22170803 -0.04423599
-0.7609425 -0.98149335 -0.08599974 -0.3079378 -1.9867309 -0.92677593 -0.8247217 -1.0258626
-0.30657738 -0.45008257 -1.3465507 -0.019039217 -0.98207235 -0.59828126 -1.6460059 -1.7942702
-0.39951277 -0.18395042 -0.12822028 -0.3363891 -1.5462345 0.032390095 -0.58421963 -0.7358023
-0.18129863 -2.3943107 -1.1689466 -0.078616574 -1.4178623 -0.062049374 -0.013878561 -0.23958877
-0.7225209 -0.5237189 -0.728862 -2.9135814 -0.349771 -1.5280368 -0.047230873 -0.35817125
-0.82630897 -1.5199904 -0.049792424 -0.643668 -0.72025496 -0.6862301 -1.1635396 -0.13323645
0.036052667 0.0022286607 -0.030504605 -1.9694455 -0.43197238 -0.9485206 -0.18219489 -0.8349331
-0.77616584 -0.26023763 -1.0874751 -0.007867668 -0.37660238 -0.3538945 -1.3841982 -2.5051036
-0.13239968 -0.61969876 -0.44117272 -0.20598222 -2.870284 -0.28315732 -0.18649158 -2.4343352
-0.046773966 -0.43327025 -0.4073362 -0.76136035 -0.45394725 -0.9173608 -1.8416245 -0.10220561
-0.27604893 -1.869308 -0.115027994 -0.05147471 -0.8201226 -0.5914875 -0.20761773 -2.1594732
-0.89114887 -2.2864945 -1.3396642 -0.37369993 -0.058036894 -2.2149143 -1.7183328 -0.06529819
-2.3606696 -1.8777994 -0.82170486 -1.4296111 -0.43196458 -0.89682865 -0.088415265 -0.37782243
-0.5526071 -0.01217651 -1.6913011 -0.7712628 -0.11012195 -2.062326 -1.695741 0.043614447
-1.4158958 -0.11552262 -0.0021845968 -0.809242 -1.1295742 -1.7804857 -1.6329674 -1.8967062
-0.37507328 -0.6487086 -0.49334008 -0.7828443 -1.1152176 -0.44081426 -0.06203394 -0.59145993
-1.3767303 -0.6096753 -0.5345296 -0.38496184 -0.06790814 -0.06866214 -0.08507434 -1.4448104
-1.3580883 -0.50144035 -0.05149442 -1.2065421 -0.5126233 -0.28127873 -0.7562976 -0.10549293
-0.5674668 -0.38246837 -0.76482636 -0.31256825 -0.07617266 -1.430285 -0.76928425 -0.16791287
-0.8885214 -0.22982939 -0.59001297 -0.59524083 -0.19049014 -0.47315994 -0.37498638 -0.5787561
0.06894759 -0.35076326 -1.5017263 -0.1372746 -0.21674173 -0.2566076 -0.15627739 -0.121061526
-1.1089007 -0.6349352 -0.04327634 -0.13488357 -1.846905 -1.1939735 -1.3931208 -0.96557903
-0.4341969 -1.2723631 -1.8753995 -0.046211947 -1.2618891 -2.064422 -1.5219952 -0.72288394
-0.9719122 -1.0334393 -0.09523346 -0.31548744 -1.6824559 0.007617478 -0.9002485 -1.0271883
-0.14163971 -2.8332431 -0.1668229 -0.13050073 -1.4250995 0.029800246 -0.0135582555 0.05711071
-0.7142117 -0.65000486 -0.3798857 -1.8146008 -0.46885052 -0.85047954 -0.755394 -0.25203398
-0.5412284 -0.81312203 -0.03888814 -0.8464649 -1.6320246 -1.8170632 -0.48386773 -0.08494271
-0.08202908 -0.06667987 -0.18685533 -1.7041633 -0.43926904 -1.0533968 -0.6101056 -1.4257681
-1.8401867 -1.1061485 -1.3749818 0.05781713 -0.54581183 -0.14824861 -0.67227525 -0.38597697

fc3.bias f4 [10]
00000000: b695 6dbf 214c d0bf 44b5 e9be eafd 5a3f
00000010: e4d0 9a3f ede9 8abe 0f3a fa3e 6135 bfbe
00000020: 2718 353f 5bdc a9be
-0.92806566 -1.6273233 -0.45646107 0.8554369 1.2094998 -0.27131596 0.4887242 -0.37345412
0.7073998 -0.3317593
